…
089386176-&gt;112089474160 112089888696 Combine-MF-MLP: Dense 112089474160-&gt;112089888696 112089888752 FullyConnected-4: Dense 112089888696-&gt;112089888752 112089753920 Prediction: Dense 112089888752-&gt;112089753920 So, it wasn&#39;t very complicated to set up. Courtesy Keras, we can do even more complex stuff! . model.summary() . __________________________________________________________________________________________________ Layer (type) Output Shape Param # Connected to ================================================================================================== Item (InputLayer) (None, 1) 0 __________________________________________________________________________________________________ User (InputLayer) (None, 1) 0 __________________________________________________________________________________________________ Movie-Embedding-MLP (Embedding) (None, 1, 10) 16830 Item[0][0] __________________________________________________________________________________________________ User-Embedding-MLP (Embedding) (None, 1, 8) 7552 User[0][0] __________________________________________________________________________________________________ FlattenMovies-MLP (Flatten) (None, 10) 0 Movie-Embedding-MLP[0][0] __________________________________________________________________________________________________ FlattenUsers-MLP (Flatten) (None, 8) 0 User-Embedding-MLP[0][0] __________________________________________________________________________________________________ dropout_1 (Dropout) (None, 10) 0 FlattenMovies-MLP[0][0] __________________________________________________________________________________________________ dropout_3 (Dropout) (None, 8) 0 FlattenUsers-MLP[0][0] __________________________________________________________________________________________________ Concat (Merge) (None, 18) 0 dropout_1[0][0] dropout_3[0][0] __________________________________________________________________________________________________ dropout_5 (Dropout) (None, 18) 0 Concat[0][0] __________________________________________________________________________________________________ FullyConnected (Dense) (None, 200) 3800 dropout_5[0][0] __________________________________________________________________________________________________ Batch (BatchNormalization) (None, 200) 800 FullyConnected[0][0] __________________________________________________________________________________________________ Dropout-1 (Dropout) (None, 200) 0 Batch[0][0] __________________________________________________________________________________________________ FullyConnected-1 (Dense) (None, 100) 20100 Dropout-1[0][0] __________________________________________________________________________________________________ Batch-2 (BatchNormalization) (None, 100) 400 FullyConnected-1[0][0] __________________________________________________________________________________________________ Movie-Embedding-MF (Embedding) (None, 1, 3) 5049 Item[0][0] __________________________________________________________________________________________________ User-Embedding-MF (Embedding) (None, 1, 3) 2832 User[0][0] __________________________________________________________________________________________________ Dropout-2 (Dropout) (None, 100) 0 Batch-2[0][0] __________________________________________________________________________________________________ FlattenMovies-MF (Flatten) (None, 3) 0 Movie-Embedding-MF[0][0] __________________________________________________________________________________________________ FlattenUsers-MF (Flatten) (None, 3) 0 User-Embedding-MF[0][0] __________________________________________________________________________________________________ FullyConnected-2 (Dense) (None, 50) 5050 Dropout-2[0][0] __________________________________________________________________________________________________ dropout_2 (Dropout) (None, 3) 0 FlattenMovies-MF[0][0] __________________________________________________________________________________________________ dropout_4 (Dropout) (None, 3) 0 FlattenUsers-MF[0][0] __________________________________________________________________________________________________ FullyConnected-3 (Dense) (None, 20) 1020 FullyConnected-2[0][0] __________________________________________________________________________________________________ Dot (Merge) (None, 1) 0 dropout_2[0][0] dropout_4[0][0] __________________________________________________________________________________________________ Activation (Dense) (None, 1) 21 FullyConnected-3[0][0] __________________________________________________________________________________________________ Concat-MF-MLP (Merge) (None, 2) 0 Dot[0][0] Activation[0][0] __________________________________________________________________________________________________ Combine-MF-MLP (Dense) (None, 100) 300 Concat-MF-MLP[0][0] __________________________________________________________________________________________________ FullyConnected-4 (Dense) (None, 100) 10100 Combine-MF-MLP[0][0] __________________________________________________________________________________________________ Prediction (Dense) (None, 1) 101 FullyConnected-4[0][0] ================================================================================================== Total params: 73,955 Trainable params: 73,355 Non-trainable params: 600 __________________________________________________________________________________________________ . We can see that the number of parameters is more than what we had in the Matrix Factorisation case. Let&
…
name=&#39;FlattenUsers&#39;)(keras.layers.Embedding(n_users + 1, n_latent_factors,name=&#39;User-Embedding&#39;)(user_input)) prod = keras.layers.merge([movie_vec, user_vec], mode=&#39;dot&#39;,name=&#39;DotProduct&#39;) model = keras.Model([user_input, movie_input], prod) model.compile(&#39;adam&#39;, &#39;mean_squared_error&#39;) . Here&#39;s a visualisation of our model for a better understanding. . SVG(model_to_dot(model, show_shapes=True, show_layer_names=True, rankdir=&#39;HB&#39;).create(prog=&#39;dot&#39;, format=&#39;svg&#39;)) . G 4651743104 Item: InputLayer input: output: (None, 1) (None, 1) 4651743216 Movie-Embedding: Embedding input: output: (None, 1) (None, 1, 3) 4651743104-&gt;4651743216 4651744392 User: InputLayer input: output: (None, 1) (None, 1) 4651743888 User-Embedding: Embedding input: output: (None, 1) (None, 1, 3) 4651744392-&gt;4651743888 4651744000 FlattenMovies: Flatten input: output: (None, 1, 3) (None, 3) 4651743216-&gt;4651744000 4468062472 FlattenUsers: Flatten input: output: (None, 1, 3) (None, 3) 4651743888-&gt;4468062472 4651881696 DotProduct: Merge input: output: [(None, 3), (None, 3)] (None, 1) 4651744000-&gt;4651881696 4468062472-&gt;4651881696 We can see that in the Merge layer, we take the dot product of the user and the item embeddings to obtain the rating. . We can also summarise our model as follows: . model.summary() . __________________________________________________________________________________________________ Layer (type) Output Shape Param # Connected to ================================================================================================== Item (InputLayer) (None, 1) 0 __________________________________________________________________________________________________ User (InputLayer) (None, 1) 0 __________________________________________________________________________________________________ Movie-Embedding (Embedding) (None, 1, 3) 5049 Item[0][0] __________________________________________________________________________________________________ User-Embedding (Embedding) (None, 1, 3) 2832 User[0][0] __________________________________________________________________________________________________ FlattenMovies (Flatten) (None, 3) 0 Movie-Embedding[0][0] __________________________________________________________________________________________________ FlattenUsers (Flatten) (None, 3) 0 User-Embedding[0][0] __________________________________________________________________________________________________ DotProduct (Merge) (None, 1) 0 FlattenMovies[0][0] FlattenUsers[0][0] ================================================================================================== Total params: 7,881 Trainable params: 7,881 Non-trainable params: 0 __________________________________________________________________________________________________ . So, we have 7881 parameters to learn! Let&#39;s train our model now! . history = model.fit([
…
out&#39;)(dense_3) dense_4 = keras.layers.Dense(20,name=&#39;FullyConnected-3&#39;, activation=&#39;relu&#39;)(dense_3) result = keras.layers.Dense(1, activation=&#39;relu&#39;,name=&#39;Activation&#39;)(dense_4) adam = Adam(lr=0.005) model = keras.Model([user_input, movie_input], result) model.compile(optimizer=adam,loss= &#39;mean_absolute_error&#39;) . Let&#39;s now see how our model looks like: . SVG(model_to_dot(model, show_shapes=True, show_layer_names=True, rankdir=&#39;HB&#39;).create(prog=&#39;dot&#39;, format=&#39;svg&#39;)) . G 112307868840 Item: InputLayer input: output: (None, 1) (None, 1) 112308383136 Movie-Embedding: Embedding input: output: (None, 1) (None, 1, 8) 112307868840-&gt;112308383136 4659651864 User: InputLayer input: output: (None, 1) (None, 1) 112310319536 User-Embedding: Embedding input: output: (None, 1) (None, 1, 5) 4659651864-&gt;112310319536 112308383416 FlattenMovies: Flatten input: output: (None, 1, 8) (None, 8) 112308383136-&gt;112308383416 112307982232 FlattenUsers: Flatten input: output: (None, 1, 5) (None, 5) 112310319536-&gt;112307982232 112308313840 dropout_1: Dropout input: output: (None, 8) (None, 8) 112308383416-&gt;112308313840 112310320768 dropout_2: Dropout input: output: (None, 5) (None, 5) 112307982232-&gt;112310320768 4659651360 Concat: Merge input: output: [(None, 8), (None, 5)] (None, 13) 112308313840-&gt;4659651360 112310320768-&gt;4659651360 112308749368 FullyConnected-1: Dense input: output: (None, 13) (None, 100) 4659651360-&gt;112308749368 112310118104 FullyConnected-2: Dense input: output: (None, 100) (None, 50) 112308749368-&gt;112310118104 4653345424 FullyConnected-3: Dense input: output: (None, 50) (None, 20) 112310118104-&gt;4653345424 4653179904 Activation: Dense input: output: (None, 20) (None, 1) 4653345424-&gt;4653179904 It should be noted that we use a different number of embeddings for user (3) and items (5)! These combine to form a vector of length (5+3 = 8), which is then fed into the neural network. We also add a dropout layer to prevent overfitting! . model.summary() . __________________________________________________________________________________________________ Layer (type) Output Shape Param # Connected to ================================================================================================== Item (InputLayer) (None, 1) 0 __________________________________________________________________________________________________ User (InputLayer) (None, 1) 0 __________________________________________________________________________________________________ Movie-Embedding (Embedding) (None, 1, 8) 13464 Item[0][0] __________________________________________________________________________________________________ User-Embedding (Embedding) (None, 1, 5) 4720 User[0][0] __________________________________________________________________________________________________ FlattenMovies (Flatten) (None, 8) 0 Movie-Embedding[0][0] __________________________________________________________________________________________________ FlattenUsers (Flatten) (None, 5) 0 User-Embedding[0][0] __________________________________________________________________________________________________ dropout_1 (Dropout) (None, 8) 0 FlattenMovies[0][0] __________________________________________________________________________________________________ dropout_2 (Dropout) (None, 5) 0 FlattenUsers[0][0] __________________________________________________________________________________________________ Concat (Merge) (None, 13) 0 dropout_1[0][0] dropout_2[0][0] __________________________________________________________________________________________________ FullyConnected-1 (Dense) (None, 100) 1400 Concat[0][0] __________________________________________________________________________________________________ FullyConnected-2 (Dense) (None, 50) 5050 FullyConnected-1[0][0] __________________________________________________________________________________________________ FullyConnected-3 (Dense) (None, 20) 1020 FullyConnected-2[0][0] __________________________________________________________________________________________________ Activation (Dense) (None, 1) 21 FullyConnected-3[0][0] ================================================================================================== Total params: 25,675 Trainable params: 25,675 Non-trainable params: 0 __________________________________________________________________________________________________ . We can see that the number of parameters is more than what we had in the Matrix Factorisation case. Let&#3
…
